last_brain.pth (torch, 7403 bytes, 12 tensors)

fc1.weight f4 [30, 4]
0.7839793 0.246554 -0.07140286 -0.026989901 -0.7182198 0.11671486 0.5020321 -0.76907873
-0.048763763 -0.04297185 -0.063174546 -0.30855185 -1.2452395 0.370506 0.62091076 -0.15575644
1.0356257 0.28566837 -0.1884992 1.0033841 0.79237366 -0.33715835 0.3984908 0.8873729
0.69466126 -0.89523613 0.28996342 0.19991279 -1.1647961 0.73365057 0.34744418 0.2811458
-1.301265 0.04113453 0.6344979 -0.05440235 0.95968634 0.57355404 0.32077017 0.7706629
0.08117062 -0.04163307 0.17104256 -0.17755038 0.29637945 0.023809135 -0.41496044 -0.4784329
1.0110149 -0.57553935 0.10265348 0.56731045 -0.0440272 0.41797656 0.5519725 -0.40952814
1.1466427 -0.4218873 0.040094286 0.33016998 0.21469222 -0.47981104 0.66228646 0.31913373
-0.68279535 0.08985276 -0.6375166 0.6675383 0.45753744 0.24443144 -0.14005274 -0.4593446
0.1161831 0.22394305 -0.47309935 -0.24690819 0.9055633 -0.32324964 0.47752908 -0.49226758
-1.4728944 0.607145 0.8222181 -0.44674972 -0.07889487 0.45057747 0.5846062 -0.37901962
0.18732521 -1.8602104 -0.5119976 -0.5960786 1.3552752 -0.15617175 -0.3604191 -0.13692553
0.0037954352 0.11247639 0.04481524 0.8919885 -0.5899003 0.7284307 0.42873842 0.63144225
0.17271928 -2.0647638 -0.6546401 0.04506065 0.11638611 -1.7215959 -0.702974 -0.2951668
0.076069236 0.0028272867 -0.22240055 -0.35175675 -1.2957169 0.5157736 -0.020533852 0.27085796
00000000: deb2 483f a778 7c3e aa3b 92bd ed19 ddbc
00000010: 41dd 37bf 3308 ef3d 2d85 003f 58e2 44bf
00000020: 83bc 47bd 4003 30bd a861 81bd 82fa 9dbe
00000030: 0264 9fbf f6b2 bd3e 02f4 1e3f 9e7e 1fbe
00000040: 628f 843f 2043 923e ef05 41be e46e 803f
00000050: 00d9 4a3f 05a0 acbe fc06 cc3e df2a 633f
00000060: 52d5 313f 322e 65bf 1676 943e f0b5 4c3e
00000070: 0a18 95bf 86d0 3b3f 34e4 b13e 58f2 8f3e
00000080: da8f a6bf ae7c 283d 746e 223f 00d5 5ebd
00000090: 01ae 753f 70d4 123f fd3b a43e 2a4a 453f
000000a0: c83c a63d 7087 2abd c825 2f3e c4cf 35be
000000b0: 0cbf 973e 600b c33c b275 d4be 28f5 f4be
000000c0: f068 813f 8c56 13bf fd3b d23d 423b 113f
000000d0: de55 34bd 0601 d63e 124e 0d3f acad d1be
000000e0: 30c5 923f 9d01 d8be e839 243d 0a0c a93e
000000f0: 47d8 5b3e cba9 f5be 9b8b 293f 7f65 a33e
00000100: adcb 2ebf b904 b83d 4a34 23bf cae3 2a3f
00000110: 5942 ea3e 3c4c 7a3e fc69 0fbe 372f ebbe
00000120: 68f1 ed3d 5451 653e 143a f2be 80d5 7cbe
00000130: ffd2 673f fa80 a5be b17e f43e 7f0a fcbe
00000140: ce87 bcbf db6d 1b3f e37c 523f 61bc e4be
00000150: a293 a1bd 17b2 e63e c0a8 153f dc0e c2be
00000160: 2ed2 3f3e 601b eebf 4612 03bf 9b98 18bf
00000170: a879 ad3f 7deb 1fbe da88 b8be 3536 0cbe
00000180: d6bc 783b 065a e63d 2f90 373d 5c59 643f
00000190: b503 17bf 6f7a 3a3f 9a83 db3e 33a6 213f
000001a0: 53dd 303e 1725 04c0 7e96 27bf 8491 383d
000001b0: d75b ee3d 415d dcbf 1bf6 33bf 1a20 97be
000001c0: 30ca 9b3d 004a 393b f8bc 63be 7619 b4be
000001d0: 0dda a5bf bd09 043f 9c36 a8bc e5ad 8a3e

fc1.bias f4 [30]
0.6041628 -0.55264646 -0.05568633 -0.79041284 -0.16771723 -0.17677832 -0.2841464 -0.6360136
-0.57355505 -0.23460992 -0.23618257 -0.33962458 -0.19590774 0.39313295 -0.07292562 -0.21170896
0.46385738 0.5164548 -0.42967105 0.7432021 -0.8876963 0.35348046 0.9768376 0.41832462
0.49019274 0.4422886 0.87809604 0.81247807 -0.29668236 -0.421661
00000000: 6aaa 1a3f 3d7a 0dbf 5917 64bd 7f58 4abf
00000010: 11be 2bbe 6005 35be a37b 91be cad1 22bf
00000020: 81d4 12bf 953d 70be d8d9 71be 46e3 adbe
00000030: 0a9c 48be b948 c93e 075a 95bd 3cca 58be
00000040: b77e ed3e 6236 043f d8fd dbbe 7e42 3e3f
00000050: 1140 63bf 64fb b43e 0712 7a3f a52e d63e
00000060: 8bfa fa3e a773 e23e e7ca 603f 90fe 4f3f
00000070: c0e6 97be f3e3 d7be

fc2.weight f4 [3, 30]
-0.3349518 -1.0561304 0.07335032 -0.7448007 -0.8444465 -0.346118 -0.52362883 -0.5531788
-1.1716408 -0.2908387 -0.04196334 -0.034397334 -0.58401746 0.17365831 -0.40456942 -0.12041033
-0.4117126 0.15898745 -0.0051958263 0.49329677 -0.49748483 0.11477523 0.43561122 -0.878166
-0.038790226 -0.28461352 0.64286935 0.37432483 0.046368852 -0.31065124 -0.44863752 -1.5148
0.10929022 -1.1002393 -0.22205836 0.039140828 0.83561254 -0.63858455 -1.1424013 -0.43205968
0.14287895 0.06300296 -1.0629175 -0.40818712 -0.9403592 0.83256334 0.48674145 -0.1128198
0.030635267 0.18939357 -1.1559191 -0.5688453 0.68686974 -0.32126507 0.076468885 -0.23262775
0.5687404 0.4804001 -0.010763526 -0.19625807 -0.13100691 -0.6840285 -0.033885792 -0.40004113
-0.37748054 -0.43417746 0.21267559 -0.50177085 -0.8313774 -0.24847056 -0.10968862 -0.04459232
-1.0105611 0.27844554 -0.74239093 -0.01770746 -0.8539201 0.2728508 0.050093964 0.43194833
-0.339192 0.30934682 0.9060216 -0.94948626 -0.45226413 -0.28353718 0.35281706 0.50366855
-0.067944124 -0.71349496
00000000: cd7e abbe 482f 87bf b138 963d 42ab 3ebf
00000010: a52d 58bf 6136 b1be 8a0c 06bf 209d 0dbf
00000020: 53f8 95bf cfe8 94be c0e1 2bbd 38e4 0cbd
00000030: 2b82 15bf 7cd3 313e b923 cfbe b199 f6bd
00000040: fecb d2be 9bcd 223e c041 aabb 6591 fc3e
00000050: 55b6 febe 470f eb3d 6f08 df3e 7dcf 60bf
00000060: 80e2 1ebd ddb8 91be 1693 243f 81a7 bf3e
00000070: 44ed 3d3d ae0d 9fbe d1b3 e5be f7e4 c1bf
00000080: 8dd3 df3d a4d4 8cbf 4463 63be 2252 203d
00000090: b4ea 553f 477a 23bf 353a 92bf ed36 ddbe
000000a0: dc4e 123e b207 813d ae0d 88bf e7fd d0be
000000b0: 61bb 70bf df22 553f 2d36 f93e 110e e7bd
000000c0: d0f6 fa3c 63f0 413e 28f5 93bf d89f 11bf
000000d0: b2d6 2f3f db7c a4be b89b 9c3d f835 6ebe
000000e0: f998 113f 00f7 f53e 8059 30bc e0f7 48be
000000f0: ad26 06be 7e1c 2fbf d4cb 0abd 31d2 ccbe
00000100: 2145 c1be 824c debe a1c7 593e 0e74 00bf
00000110: 26d5 54bf 116f 7ebe 6da4 e0bd 70a6 36bd
00000120: 115a 81bf 6a90 8e3e 550d 3ebf 3c0f 91bc
00000130: 829a 5abf 1ab3 8b3e 542f 4d3d 5528 dd3e
00000140: 93aa adbe b562 9e3e 08f1 673f 8811 73bf
00000150: 2a8f e7be c92b 91be 70a4 b43e 6cf0 003f
00000160: 4a26 8bbd 9ba7 36bf

fc2.bias f4 [3]
0.14944412 0.024304137 0.06932309
00000000: e107 193e 7819 c73c 44f9 8d3d

exp_avg f4 [30, 4]
-0.0002240013 0.0010242951 0.00073045463 0.002518735 0.00042155938 -0.00093232316 -0.0011848866 -9.945566e-05
-6e-45 0.0 0.0 0.0 -0.00033771852 5.518383e-05 -0.00095479644 0.00071311736
-0.00041517967 0.0014868152 3.2263393e-05 0.0030337805 0.00068827596 0.0008537656 0.00053185935 0.0008236403
-0.00020751383 1.6908529e-05 -0.0005327972 0.000190648 -0.00068388256 0.0013709624 0.0005037026 0.0023492265
-0.0018414921 -0.00030744477 -0.0012785863 0.0023818414 -0.00011721847 0.0010881 0.00088801794 0.0023992034
0.0 0.0 0.0 0.0 0.0 0.0 0.0 0.0
0.0015896756 0.0016219917 0.0016243097 0.0027036406 0.0008894688 0.00016791007 0.00019559416 0.00033323374
0.00084669713 0.001282038 0.001557 0.0026517601 0.00035025 -0.0006673955 -0.0013949997 -0.001598842
-0.0017725613 0.000562574 0.00057027745 0.00035887165 0.00041734177 -0.00046686322 -0.00036568625 -0.00022300286
0.0 0.0 0.0 0.0 0.00055109605 -0.0009038248 -0.0009579811 -0.0015156048
9.0443034e-05 9.102898e-05 -0.00068143185 0.0005123237 0.0009975837 0.00040117864 0.0003017236 0.0008589945
0.0014266142 7.392481e-05 -0.00080773176 -0.0013805436 0.00092539843 0.0018271562 0.0011415256 0.0020238415
-9.048308e-05 0.0004878158 0.00068538904 0.00029195088 -0.00046596627 0.0008682107 0.0005767797 0.0017852908
0.00068464945 -3.3808712e-06 -0.00031541576 -0.0017855013 0.0007740783 5.309943e-05 -0.00033634325 -0.0011054882
0.0 0.0 0.0 0.0 -0.0008450273 0.0007768083 0.00093634124 0.0014401146
00000000: e4e1 6ab9 a441 863a fb7b 3f3a 5c11 253b
00000010: be04 dd39 2667 74ba 324e 9bba da92 d0b8
00000020: 0400 0080 0000 0000 0000 0000 0000 0000
00000030: d00f b1b9 3075 6738 4e4b 7aba 7ff0 3a3a
00000040: 79ac d9b9 3de1 c23a 8e52 0738 64d2 463b
00000050: 6b6d 343a 3dcf 5f3a 7a6c 0b3a 91e9 573a
00000060: 1298 59b9 cad6 8d37 6aab 0bba afe8 4739
00000070: 9546 33ba ddb1 b33a e90a 043a 7bf5 193b
00000080: 395e f1ba 8a30 a1b9 3d96 a7ba ab18 1c3b
00000090: 30d3 f5b8 949e 8e3a e0c9 683a f43b 1d3b
000000a0: 0000 0000 0000 0000 0000 0000 0000 0000
000000b0: 0000 0000 0000 0000 0000 0000 0000 0000
000000c0: a95c d03a 0399 d43a cae6 d43a 902f 313b
000000d0: 3e2b 693a 0411 3039 6818 4d39 e0b5 ae39
000000e0: e2f4 5d3a 0f0a a83a 4014 cc3a 27c9 2d3b
000000f0: c2a1 b739 27f4 2eba 6cd8 b6ba 3c90 d1ba
00000100: 4a55 e8ba b479 133a ac7e 153a f026 bc39
00000110: aace da39 52c5 f4b9 94b9 bfb9 e0d5 69b9
00000120: 0000 0000 0000 0000 0000 0000 0000 0000
00000130: 6e77 103a a8ee 6cba 0621 7bba 42a7 c6ba
00000140: 3cac bd38 d0e6 be38 1ea2 32ba 764d 063a
00000150: 5bc1 823a 4955 d239 a830 9e39 252e 613a
00000160: 3bfd ba3a 1508 9b38 f6bd 53ba 5bf3 b4ba
00000170: 7096 723a 307d ef3a 3e9f 953a 6da2 043b
00000180: bcc1 bdb8 87c1 ff39 aeab 333a fc10 9939
00000190: ef4c f4b9 a298 633a 0833 173a 6b00 ea3a
000001a0: 0c7a 333a ede2 62b6 635e a5b9 7b07 eaba
000001b0: 84eb 4a3a 14b7 5e38 3a57 b0b9 07e6 90ba
000001c0: 0000 0000 0000 0000 0000 0000 0000 0000
000001d0: d284 5dba b9a2 4b3a cc74 753a 3ac2 bc3a

exp_avg_sq f4 [30, 4]
9.289425e-06 9.5398555e-06 1.1574695e-05 1.9461912e-05 8.292778e-05 1.2119621e-05 2.0233285e-05 9.776168e-07
5.851623e-11 0.0 0.0 0.0 5.8040885e-05 2.3009858e-05 2.364589e-05 1.8475048e-05
1.7804443e-05 4.1140098e-05 4.082375e-05 3.2552307e-05 1.0748466e-05 1.7587097e-05 2.3881648e-05 1.5024768e-05
1.1835969e-05 1.9649535e-07 3.840325e-06 1.2320147e-05 3.5493893e-05 3.2640015e-05 3.5424568e-05 3.308033e-05
9.221599e-05 5.711091e-05 7.198224e-05 4.9740847e-05 1.0282345e-05 1.3442839e-05 1.6975162e-05 2.0229747e-05
0.0 0.0 0.0 0.0 0.0 0.0 0.0 0.0
7.388615e-05 5.57299e-05 7.873818e-05 0.00010017514 1.5791084e-05 1.1324625e-05 1.46490465e-05 1.3788805e-05
4.761648e-05 3.4853387e-05 4.836191e-05 6.571834e-05 1.4932648e-05 1.249322e-05 1.8265368e-05 4.0382463e-05
5.274249e-05 5.0208226e-05 5.9945156e-05 5.988416e-05 6.2095523e-06 6.4292694e-06 8.869972e-06 4.9403548e-06
0.0 0.0 0.0 0.0 1.6317412e-05 2.1017306e-05 2.9263707e-05 1.519216e-05
5.8567708e-05 1.4783132e-05 1.9869305e-05 1.2879864e-05 2.5768815e-05 1.5353744e-05 2.0190024e-05 2.3246492e-05
6.733836e-05 7.5020216e-07 2.2763794e-05 2.3143772e-05 4.4352008e-05 5.6770365e-05 7.540851e-05 4.0069e-05
1.4117487e-05 1.5033711e-05 2.1297845e-05 1.1579993e-05 9.750143e-06 1.0355442e-05 1.3176373e-05 1.06112975e-05
3.2422115e-05 4.6497956e-07 8.58212e-06 1.6678297e-05 2.6794987e-05 2.7807434e-07 7.672398e-06 1.1465693e-05
0.0 0.0 0.0 0.0 1.6903583e-05 2.110606e-05 2.4174558e-05 1.95605e-05
00000000: c7d9 1b37 5e0d 2037 f030 4237 2342 a337
00000010: 83e9 ad38 6055 4b37 a6ba a937 a836 8335
00000020: b5ad 802e 0000 0000 0000 0000 0000 0000
00000030: ed70 7338 4b05 c137 2a5b c637 ddfa 9a37
00000040: c05a 9537 d88d 2c38 2b3a 2b38 c688 0838
00000050: 4f54 3437 0188 9337 7355 c837 e312 7c37
00000060: 1a93 4637 3bfc 5234 24dc 8036 a1b2 4e37
00000070: 47df 1438 f3e6 0838 d794 1438 bcbf 0a38
00000080: 1564 c138 5f8a 6f38 2cf5 9638 d4a0 5038
00000090: 5682 2c37 8e88 6137 e265 8e37 0db3 a937
000000a0: 0000 0000 0000 0000 0000 0000 0000 0000
000000b0: 0000 0000 0000 0000 0000 0000 0000 0000
000000c0: 53f3 9a38 86bf 6938 3d20 a538 1e15 d238
000000d0: 1877 8437 e5fe 3d37 2dc5 7537 7756 6737
000000e0: ceb7 4738 8a2f 1238 35d8 4a38 44d2 8938
000000f0: 3c87 7a37 f999 5137 9438 9937 5760 2938
00000100: d137 5d38 ac96 5238 9f6d 7b38 212c 7b38
00000110: a65b d036 01bb d736 3dd0 1437 53c5 a536
00000120: 0000 0000 0000 0000 0000 0000 0000 0000
00000130: 60e1 8837 524e b037 557b f537 d5e1 7e37
00000140: 99a6 7538 1205 7837 02ad a637 9816 5837
00000150: 1c2a d837 eacb 8037 bf5d a937 7601 c337
00000160: 0238 8d38 8061 4935 e0f4 be37 df24 c237
00000170: 9b06 3a38 b71c 6e38 a324 9e38 c30f 2838
00000180: 25da 6c37 4c39 7c37 c6a8 b237 b147 4237
00000190: 8c94 2337 49bc 2d37 1710 5d37 2d07 3237
000001a0: fbfc 0738 4ea2 f934 edfb 0f37 5fe8 8b37
000001b0: ccc5 e037 3f4a 9534 b3b8 0037 c75c 4037
000001c0: 0000 0000 0000 0000 0000 0000 0000 0000
000001d0: 2bcc 8d37 eb0c b137 78ca ca37 db15 a437

exp_avg f4 [30]
0.0027854575 -0.0007475078 6e-45 0.0005370481 0.003999749 0.0010166236 -0.00071222486 0.0025695965
0.00287338 0.0033057982 0.0 0.0 0.006042897 -0.0010879094 0.004275949 -0.002577247
0.0026549394 -0.0011315842 0.0 -0.003244542 0.00022338185 -0.0007275124 -0.0028742084 0.0029665628
0.0011495212 0.0021787586 -0.003177172 -0.0020336658 0.0 0.0028539062
00000000: 398c 363b 66f4 43ba 0400 0000 b0c8 0c3a
00000010: 5410 833b 3a40 853a 9ab4 3aba ad66 283b
00000020: 514f 3c3b 17a6 583b 0000 0000 0000 0000
00000030: 7e03 c63b 2f98 8eba 431d 8c3b 08e7 28bb
00000040: 7efe 2d3b aa51 94ba 0000 0000 62a2 54bb
00000050: 9c3b 6a39 88b6 3eba 375d 3cbb aa6a 423b
00000060: 88ab 963a 81c9 0e3b 1a38 50bb 4047 05bb
00000070: 0000 0000 9a08 3b3b

exp_avg_sq f4 [30]
5.8704358e-05 0.000117352225 1.02205806e-10 9.91729e-05 9.532399e-05 4.842299e-05 2.4058205e-05 8.530136e-05
0.00019597539 4.726743e-05 0.0 0.0 0.00029826048 6.632993e-05 0.00021039932 5.6766028e-05
0.00024605833 2.851661e-05 0.0 8.529541e-05 9.65091e-05 0.000107385276 0.00026190837 0.00026095973
5.90619e-05 4.404559e-05 0.00012623495 0.00010257693 0.0 4.315623e-05
00000000: 5339 7638 ff1a f638 c1c0 e02e 0cfb cf38
00000010: ade8 c738 ca19 4b38 9ad0 c937 d2e3 b238
00000020: be7e 4d39 0441 4638 0000 0000 0000 0000
00000030: d85f 9c39 9c1a 8b38 a39e 5c39 0f18 6e38
00000040: 6401 8139 f436 ef37 0000 0000 a0e0 b238
00000050: ee64 ca38 0834 e138 bf50 8939 6cd1 8839
00000060: 3bb9 7738 98bd 3838 f05d 0439 921e d738
00000070: 0000 0000 a602 3538

exp_avg f4 [3, 30]
-0.0013038478 0.0002558985 6e-45 -1.2096018e-05 -0.00066871743 -0.0001063161 6.928495e-05 -0.0014165456
-0.00040189212 -5.146081e-06 0.0 0.0 0.00028847047 -0.0006785123 0.00020006194 3.813235e-05
-0.0056793354 -0.0009037072 0.0 -0.00088135095 0.00024565472 -0.0006274775 -0.0034867884 -0.0008728506
-0.0044991365 -0.0048557045 -0.0038370294 -0.003348746 0.0 -0.0024259523 -0.002124036 0.00035289882
6e-45 0.0006116461 -0.0019939821 -0.0018134476 3.2658638e-05 -0.00047357072 0.0009024801 -0.0021059946
0.0 0.0 -0.0001416215 -0.00064939365 -9.274228e-05 -0.0005939136 -0.0018588239 -4.9575377e-05
0.0 -0.00094828923 0.0007933439 -0.00073387916 0.0013694824 -0.00052492786 -0.004212868 -0.003941225
0.0001841402 0.001008565 0.0 6.173843e-05 -0.0019163168 -0.00043415144 0.0 4.6869274e-05
-0.003607011 -0.002427899 -0.0002975957 0.0001439151 -0.00043924144 -0.0038932648 0.0 0.0
-0.0012151302 -0.0020537807 -0.0014368199 -0.00087369763 -0.0010855789 -0.00081063324 0.0 -0.0016650057
7.066016e-05 -0.0020850915 -0.00095488026 -0.00062654825 -0.0022993535 -0.0033091297 -0.0005162613 -0.00065546803
0.0 9.5781375e-05
00000000: dfe5 aaba 1e2a 8639 0400 0000 00f0 4ab7
00000010: de4c 2fba 06f6 deb8 134d 9138 62ab b9ba
00000020: 0cb5 d2b9 80ac acb6 0000 0000 0000 0000
00000030: da3d 9739 31de 31ba b8c7 5139 4df0 1f38
00000040: b819 babb c3e6 6cba 0000 0000 760a 67ba
00000050: 38cb 8039 4d7d 24ba 9a82 64bb 03d0 64ba
00000060: 7e6d 93bb 9a1c 9fbb ac76 7bbb a376 5bbb
00000070: 0000 0000 bafc 1ebb 6933 0bbb 4705 b939
00000080: 0400 0000 e056 203a 78ad 02bb 34b1 edba
00000090: f2fa 0838 9649 f8b9 6a94 6c3a ba04 0abb
000000a0: 0000 0000 0000 0000 3b80 14b9 123c 2aba
000000b0: a27e c2b8 deb0 1bba c8a3 f3ba 28ef 4fb8
000000c0: 0000 0000 9d96 78ba 68f8 4f3a cc61 40ba
000000d0: 3480 b33a 509b 09ba 190c 8abb 6425 81bb
000000e0: c215 4139 d331 843a 0000 0000 9179 8138
000000f0: ec2c fbba d29e e3b9 0000 0000 8095 4438
00000100: 9a63 6cbb 631d 1fbb 9e06 9cb9 eae7 1639
00000110: fd49 e6b9 2526 7fbb 0000 0000 0000 0000
00000120: 0145 9fba b998 06bb ad53 bcba db08 65ba
00000130: fc49 8eba ad80 54ba 0000 0000 523c daba
00000140: 622f 9438 08a6 08bb ee50 7aba f13e 24ba
00000150: c0b0 16bb fcdd 58bb b655 07ba b7d3 2bba
00000160: 0000 0000 3cde c838

exp_avg_sq f4 [3, 30]
7.087324e-05 6.211718e-07 6.040692e-13 1.0882267e-05 2.9189338e-05 1.7701557e-05 3.570229e-07 4.0343e-05
1.0245201e-05 6.6510926e-05 0.0 0.0 3.4623001e-06 6.327177e-05 6.2214585e-06 3.6940446e-06
5.8569545e-05 3.3033968e-05 0.0 8.275782e-05 1.7200005e-05 6.650654e-05 6.7120025e-05 3.1854568e-05
8.840188e-05 0.000183759 6.2481384e-05 4.8693582e-05 0.0 2.760349e-05 0.00013397976 1.4864454e-06
1.5499338e-11 1.4540676e-05 0.00013927823 8.124615e-05 5.7114407e-06 2.5935971e-05 2.4043584e-05 0.00012760842
0.0 0.0 4.047096e-05 4.8851743e-05 4.1872805e-05 9.004291e-06 0.00013948945 3.8416532e-05
0.0 0.00010962831 2.2516251e-05 4.9646726e-05 0.000116698415 8.4135354e-05 0.00019533712 0.00021862464
0.00014469854 9.6619595e-05 0.0 3.546748e-05 0.00023384637 2.4508427e-06 0.0 3.3862452e-05
0.000113717164 7.265665e-05 2.9125158e-06 9.535507e-05 3.4810266e-05 0.0002237535 0.0 0.0
2.262599e-05 0.00015288458 3.9244085e-05 1.5428765e-05 7.4649695e-05 9.0355665e-05 0.0 0.00027166912
5.0588114e-05 0.00016241259 0.00016114888 0.0001378692 0.00020804563 0.0004157973 0.00014015143 0.00010962704
0.0 5.5063007e-05
00000000: c8a1 9438 9abe 2635 c607 2a2b fb92 3637
00000010: a0db f437 ce7d 9437 dbac bf34 f735 2938
00000020: cee2 2b37 c87b 8b38 0000 0000 0000 0000
00000030: dd59 6836 c6b0 8438 ecc1 d036 34e7 7736
00000040: 92a8 7538 f48d 0a38 0000 0000 448e ad38
00000050: bb48 9037 6d79 8b38 cac2 8c38 959b 0538
00000060: 6664 b938 6eaf 4039 7008 8338 563c 4c38
00000070: 0000 0000 0b8e e737 eb7c 0c39 e081 c735
00000080: 6855 882d baf3 7337 370b 1239 b262 aa38
00000090: e7a4 bf36 1391 d937 34b1 c937 a0ce 0539
000000a0: 0000 0000 0000 0000 5dbf 2938 29e6 4c38
000000b0: 95a0 2f38 2311 1737 ea43 1239 7021 2138
000000c0: 0000 0000 40e8 e538 48e1 bc37 c43b 5038
000000d0: fcbb f438 d371 b038 69d3 4c39 9b3e 6539
000000e0: 38ba 1739 40a0 ca38 0000 0000 ebc2 1438
000000f0: a834 7539 2879 2436 0000 0000 8807 0e38
00000100: 707b ee38 3e5f 9838 a474 4336 5df9 c738
00000110: 3d01 1238 5f9f 6a39 0000 0000 0000 0000
00000120: f2cc bd37 a44f 2039 049a 2438 056d 8137
00000130: 408d 9c38 547d bd38 0000 0000 d06e 8e39
00000140: 932e 5438 4c4d 2a39 13fa 2839 fb90 1039
00000150: d326 5a39 5eff d939 9df5 1239 92e7 e538
00000160: 0000 0000 74f3 6638

exp_avg f4 [3]
-0.0047058705 -0.0018586665 -0.0024006038
00000000: b433 9abb 809e f3ba 7353 1dbb

exp_avg_sq f4 [3]
0.00013529722 0.0002506014 0.00031240645
00000000: 92de 0d39 2763 8339 7cca a339
